data.pth (torch_old, 3815 bytes, 6 tensors)

l1.weight f4 [7, 54]
0.25878638 -0.19935267 0.4164236 0.572234 0.7010567 0.95720905 0.2592401 0.46497586
0.42733133 0.38628343 0.5453778 -0.31220776 0.01639917 -0.45072064 -0.18113972 -0.2037697
0.7928122 1.0550377 -0.34873867 0.94733286 -0.072631255 0.96776235 0.9009773 0.45323518
-0.14386272 0.6323104 -0.5252757 -0.37124366 -0.24592145 -0.46951857 0.67392176 -0.5003001
0.3848935 0.5359954 -0.13567306 -0.08598712 -0.42572725 0.27571344 0.3020319 0.3155865
0.8551946 -0.49052688 -0.2877169 -0.27908972 -0.01945235 -0.2189235 -0.1095346 0.0033448872
0.36110288 -0.74420214 -0.14895271 -0.3608722 0.21943893 0.33993968 -0.16128284 -0.3451117
-0.38328937 0.2357591 0.1659106 0.4116286 -0.21267179 -0.41602325 -0.29983917 -0.4571319
0.15288858 0.90706754 0.38521978 0.7971538 -0.085373916 0.73208296 0.3037535 0.42190507
0.24317385 0.4840437 -0.28495443 0.4809294 0.49044496 0.91633195 0.62191474 0.06902685
-0.052923787 -0.10875929 -0.35158908 -0.14396992 0.28026697 0.8271418 -0.042809792 -0.383948
-0.05544188 0.5991129 -0.21103688 -0.23378566 -0.16019472 -0.3901907 0.21500732 0.42464903
0.5256182 -0.080171205 0.62942886 -0.13688628 -0.51695037 -0.070613086 0.22761162 0.1460518
0.5670415 0.41678473 -0.3631995 -0.13389397 -0.1592129 -0.162663 0.61572313 0.5699018
0.65655506 0.07486795 0.39100417 0.51579463 0.64043057 0.46230254 0.7351966 0.398938
0.812694 0.48209345 -0.037607178 0.43025842 0.73288316 0.07976409 0.5384177 0.9622491
-0.33655062 0.8022878 0.96243095 0.7168287 0.30947673 0.6672676 0.70172465 -0.16428691
0.46962658 -0.38571587 0.19747414 0.3310148 -0.028165575 0.4393452 -0.19172762 0.2566366
0.39788023 0.38988176 0.17703573 0.33713058 -0.03719152 0.7362763 0.112908356 -0.15681495
0.59941113 -0.12959424 -0.655998 -0.16011849 0.6872137 0.59079534 0.43917108 0.5088107
0.38364038 0.096663006 0.40442738 0.5534835 -0.40951067 -0.31603914 0.23413368 -0.70860034
0.1369277 -0.25909457 -0.10186028 -0.11116592 -0.14119518 -0.2693046 0.88574404 -0.1313334
0.3868242 -0.15597387 0.027751032 -0.70204127 0.53898597 -0.09966129 0.57516044 -0.10591437
-0.12468308 -0.5061685 -0.1446757 -0.07564921 0.87213427 0.653817 0.5114782 0.444086
-0.72053033 -0.055266052 0.23737483 -0.4510368 0.6345128 -0.084105 0.6942713 -0.12725824
-0.05296421 0.08809842 -0.62812203 0.72704387 -0.090793885 0.6013678 -0.038288742 0.6209649
0.9096957 0.7519377 0.33202723 0.6287543 -0.015953401 0.41104147 -0.05802081 0.82114434
0.16469118 0.077696346 0.63355637 0.6708382 0.7604999 -0.60460997 0.4570341 0.78619295
0.513086 0.6329356 0.7020264 -0.029329546 0.45607516 -0.001911469 0.06308644 -0.29431045
0.67088974 -0.62021434 0.46637368 0.94293785 -0.040975925 1.0289611 0.95284486 0.5731095
0.31842226 0.5643125 0.5736251 -0.006224534 0.17066628 -0.24688448 -0.41548273 0.007123471
0.1745845 0.5187428 0.070983425 -0.20732659 0.13674532 0.37305275 0.45661205 0.5374872
00000000: a67f 843e 1b23 4cbe 7935 d53e ed7d 123f
00000010: 7478 333f a70b 753f 1ebb 843e 5111 ee3e
00000020: 2ccb da3e f1c6 c53e e19d 0b3f b2d9 9fbe
00000030: 8d57 863c dbc4 e6be b17c 39be 01a9 50be
00000040: bef5 4a3f 7a0b 873f e08d b2be 6884 723f
00000050: b2bf 94bd 46bf 773f 73a6 663f 710e e83e
00000060: c050 13be 18df 213f 7878 06bf a613 bebe
00000070: d5d2 7bbe bd64 f0be 2386 2c3f ab13 00bf
00000080: c310 c53e ff36 093f e1ed 0abe 041a b0bd
00000090: ecf8 d9be 502a 8d3e eda3 9a3e 8e94 a13e
000000a0: 09ee 5a3f 5726 fbbe a14f 93be d9e4 8ebe
000000b0: 895a 9fbc 7b2d 60be ad53 e0bd e535 5b3b
000000c0: 7ae2 b83e 0884 3ebf 0f87 18be 3ec4 b8be
000000d0: 99b4 603e 930c ae3e 5427 25be 7bb2 b0be
000000e0: 813e c4be d56a 713e 78e4 293e fcc0 d23e
000000f0: a2c6 59be 0001 d5be 8584 99be 310d eabe
00000100: d38e 1c3e 9435 683f 873b c53e 4512 4c3f
00000110: 85d8 aebd ca69 3b3f 9485 9b3e f103 d83e
00000120: 9102 793e 93d4 f73e 8ce5 91be 613c f63e
00000130: 9a1b fb3e bb94 6a3f ce35 1f3f f35d 8d3d
00000140: 9dc6 58bd 31bd debd 7c03 b4be da6c 13be
00000150: 277f 8f3e 91bf 533f 5259 2fbd d594 c4be
00000160: 0617 63bd 775f 193f 0d1a 58be 8265 6fbe
00000170: 160a 24be 13c7 c7be e12a 5c3e 996b d93e
00000180: ea8e 063f cd30 a4bd 4022 213f eb2b 0cbe
00000190: dc56 04bf 989d 90bd 0513 693e 9a8e 153e
000001a0: a229 113f cf64 d53e 49f5 b9be 801b 09be
000001b0: b508 23be 2191 26be 08a0 1d3f 16e5 113f
000001c0: fe13 283f 5e54 993d b331 c83e 1e0b 043f
000001d0: 42f3 233f ebb2 ec3e d835 3c3f 9a41 cc3e
000001e0: b70c 503f f4d4 f63e fc09 1abd d54a dc3e
000001f0: 3b9e 3b3f 5b5b a33d bed5 093f f555 763f
00000200: 5d50 acbe bc62 4d3f e061 763f 1682 373f
00000210: bc73 9e3e 0dd2 2a3f 3aa4 333f d43a 28be
00000220: e572 f03e 8d7c c5be a936 4a3e c67a a93e
00000230: 7ebb e6bc dbf1 e03e 3f54 44be df65 833e
00000240: f5b6 cb3e 959e c73e db48 353e 619c ac3e
00000250: 2356 18bd 9b7c 3c3f 7f3c e73d 1994 20be
00000260: 0273 193f 5ab4 04be 7cef 27bf 1af6 23be
00000270: 3ded 2f3f 5d3e 173f 08db e03e 6b41 023f
00000280: 836c c43e 41f7 c53d 1b11 cf3e 18b1 0d3f
00000290: 62ab d1be e2cf a1be bdc0 6f3e d566 35bf
000002a0: c636 0c3e 0ba8 84be 1f9c d0bd f5aa e3bd
000002b0: 7895 10be 4be2 89be 1fc0 623f 437c 06be
000002c0: d20d c63e 9db7 1fbe 2256 e33c fab8 33bf
000002d0: fcfa 093f 381b ccbd b73d 133f a2e9 d8bd
000002e0: d859 ffbd 4294 01bf de25 14be f9ed 9abd
000002f0: 3144 5f3f 8d60 273f 3cf0 023f 3d5f e33e
00000300: ad74 38bf a85e 62bd 6312 733e 4cee e6be
00000310: 6e6f 223f 3e3f acbd c4bb 313f fc4f 02be
00000320: 00f1 58bd f26c b43d 9bcc 20bf 8c1f 3a3f
00000330: 25f2 b9bd 3df3 193f a8d4 1cbd 8ef7 1e3f
00000340: d1e1 683f fd7e 403f 79ff a93e 0bf6 203f
00000350: b5b0 82bc 0774 d23e 3ba7 6dbd 8436 523f
00000360: cea4 283e 431f 9f3d c030 223f 0dbc 2b3f
00000370: 1fb0 423f b8c7 1abf 6000 ea3e f143 493f
00000380: 9b59 033f 1108 223f 01b8 333f 8444 f0bc
00000390: af82 e93e 428a faba 7733 813d dcaf 96be
000003a0: 6ebf 2b3f 5ec6 1ebf 88c8 ee3e 6064 713f
000003b0: 5fd6 27bd ffb4 833f a4ed 733f 4eb7 123f
000003c0: 3e08 a33e c976 103f 18d9 123f 2df7 cbbb
000003d0: 24c3 2e3e 49cf 7cbe 27ba d4be 016c e93b
000003e0: 47c6 323e 54cc 043f c25f 913d 6c4d 54be
000003f0: f706 0c3e c500 bf3e 0ec9 e93e c398 093f

l1.bias f4 [7]
0.8783731 0.51661205 0.6559288 0.7894347 0.6237296 0.4608254 0.38133425
00000000: 0fdd 603f b040 043f f3ea 273f 6418 4a3f
00000010: beac 1f3f 4ff1 eb3e 3e3e c33e

l2.weight f4 [7, 7]
0.38236544 -0.76976657 0.7636108 0.8404228 0.7359403 -0.78685546 0.1042188 1.3001636
0.95621634 1.0973592 -1.0239898 0.84969836 0.03029133 0.48880613 1.1306701 -0.35604465
0.3743203 -0.42775333 0.012714378 1.0978166 0.7798676 0.33980584 1.0624332 -0.29438207
-0.022184588 -0.9835875 0.5479639 0.4208426 0.9468414 -0.30132598 0.013405827 1.1414131
0.79606414 -1.341807 -0.6092758 -0.5113065 1.1617241 1.3551537 0.33039662 0.6136562
-0.8747068 -0.71199805 -0.59572136 -0.654406 0.25519788 1.0565071 0.44320035 0.7657043
1.2117512
00000000: 67c5 c33e 6c0f 45bf ff7b 433f f325 573f
00000010: 9566 3c3f 5c6f 49bf ab70 d53d c36b a63f
00000020: 98ca 743f 4476 8c3f 1912 83bf d585 593f
00000030: 8625 f83c cc44 fa3e ccb9 903f 7c4b b6be
00000040: e9a6 bf3e 7c02 dbbe f74f 503c 4185 8c3f
00000050: 67a5 473f 08fb ad3e d0fd 873f 3fb9 96be
00000060: 74bc b5bc 64cc 7bbf 5d47 0c3f ae78 d73e
00000070: 3364 723f 6647 9abe 1da4 5b3c d319 923f
00000080: dcca 4b3f 55c0 abbf 80f9 1bbf fce4 02bf
00000090: 60b3 943f ad75 ad3f bf29 a93e 9318 1d3f
000000a0: c9ec 5fbf 8145 36bf 3281 18bf 2787 27bf
000000b0: 4ca9 823e a03b 873f 28eb e23e 3205 443f
000000c0: aa1a 9b3f

l2.bias f4 [7]
0.27849242 0.32727563 0.36023557 0.254172 0.521872 -0.46641773 0.06604705
00000000: 8f96 8e3e ac90 a73e cc70 b83e d522 823e
00000010: 6799 053f 4ece eebe ad43 873d

l3.weight f4 [7, 7]
-1.0513712 0.37394476 -1.0019132 0.5290993 -1.0690007 0.52282333 -1.0128797 -0.23357548
-1.09348 0.06796689 0.68555343 -1.4584441 -1.1383337 0.7728431 -1.2820779 0.46819854
0.6180058 1.1119015 -0.95850325 -0.85610664 -1.1610171 -0.03754559 0.49306226 -0.30901688
-1.513461 0.18030916 -0.18015997 -1.0732251 0.27390096 -0.5698074 -0.9684032 -0.9679178
-0.32681823 0.48703027 0.14115062 -0.028882643 0.21155968 0.20125625 -1.0977587 -0.7987159
-1.2278723 0.20625095 0.39409888 -0.9947382 -0.42824978 -1.3107965 0.71545357 -1.6300877
0.20413205
00000000: 5593 86bf b075 bf3e b13e 80bf 0d73 073f
00000010: 04d5 88bf c0d7 053f 0ba6 81bf 692e 6fbe
00000020: 27f7 8bbf 3a32 8b3d 6e80 2f3f 4cae babf
00000030: ebb4 91bf 0cd9 453f 211b a4bf b8b7 ef3e
00000040: a135 1e3f ca52 8e3f 7860 75bf ce29 5bbf
00000050: 359c 94bf 68c9 19bd a872 fc3e 7637 9ebe
00000060: 17b9 c1bf f7a2 383e db7b 38be 715f 89bf
00000070: bf3c 8c3e e6de 11bf 46e9 77bf 76c9 77bf
00000080: b854 a7be 085c f93e ca89 103e 4b9b ecbc
00000090: 1aa3 583e 1e16 4e3e 5b83 8cbf a578 4cbf
000000a0: eb2a 9dbf 7333 533e 54c7 c93e 2aa7 7ebf
000000b0: 8e43 dbbe 2ec8 a7bf f727 373f b7a6 d0bf
000000c0: fe07 513e

l3.bias f4 [7]
-0.4474086 -0.114508525 0.029156048 -0.24344476 -0.89887804 -0.6895033 0.738034
00000000: bd12 e5be 7283 eabd aad8 ee3c 9549 79be
00000010: df1c 66bf 4a83 30bf ccef 3c3f
